environment_evaluation/control_model/best.pt (torch, 673983 bytes, 32 tensors)

clamping_max_actions f4 [4]
000000 4c fc 7f 3f f3 ff 7f 3f ae ff 7f 3f ce ff 7f 3f
       0.9999435 0.9999992 0.9999951 0.999997

clamping_min_actions f4 [4]
000000 4b fc 7f bf f2 ff 7f bf ae ff 7f bf ce ff 7f bf
       -0.99994344 -0.99999917 -0.9999951 -0.999997

mlp.0.weight f4 [128, 39]
000000 17 dd 49 3c c8 b1 b4 3b 6a 84 c1 3b 54 36 c8 bc
       0.012320778 0.0055143572 0.0059056776 -0.024439968
000010 d8 ab 4e bd 0e 70 14 3d 89 b8 ec bd 9e f2 be 3c
       -0.05045685 0.036239676 -0.11558635 0.023309048
000020 91 8a b2 3d 82 2c d4 3c 77 e7 5e 3c 53 15 d7 bc
       0.08717836 0.02590013 0.01360499 -0.026255285
000030 48 c6 6a 3d 08 aa ff 3c df 15 34 3c 49 2a 2d bd
       0.057318002 0.031209007 0.010991543 -0.042276654
000040 be a2 c5 3c 44 11 8e 3d 8c 69 e6 3c c7 c6 dd 3c
       0.024125453 0.06936887 0.0281265 0.027072323
000050 e7 6e 20 bd 7f f0 f6 3a 12 74 82 bb d3 e5 ff bc
       -0.039168265 0.0018839984 -0.003981122 -0.031237518
000060 df d4 a4 bd fe c5 1c be ef fb b4 bd eb 65 c5 3c
       -0.080484144 -0.15309903 -0.08837115 0.02409645
000070 8a d0 8c b9 d5 20 6c bd 0b 79 52 3a 13 b8 ee 3d
       -0.00026858255 -0.0576485 0.0008028901 0.11656203
000080 01 a9 04 3e aa 80 c3 bc 67 2d f9 3d bd 74 1b bc
       0.12955095 -0.023865063 0.12166863 -0.009488282
000090 88 62 9f bd 05 e4 6e bd 75 ba 02 3e 4e ab 2d 3c
       -0.07782465 -0.058322925 0.1276644 0.010599924
0000a0 c3 67 3c bd b8 5a d4 3c 86 8a 53 3d d2 99 d3 3b
       -0.045997392 0.025922164 0.051645778 0.006457546
0000b0 6c f9 a6 3c 99 20 4b bd 1f 04 05 3e 3c de 97 3d
       0.020382605 -0.049591634 0.12989853 0.07415435
0000c0 92 9d d8 bc c0 c5 2c bd ca 23 3a 3d 59 39 ff 3c
       -0.026442323 -0.042180777 0.045444287 0.031155275
0000d0 91 84 2b bd 40 16 4b bd 90 ed 0c bd 1e c7 b3 bc
       -0.041874472 -0.049581766 -0.034406245 -0.021945532
0000e0 0f bb 6a 3d b5 50 02 bd 32 84 10 3d 11 5f 29 3d
       0.0573073 -0.03181525 0.03528232 0.041350428
0000f0 6d e9 a0 bc e2 82 e7 3c 60 c6 c0 bd a9 56 78 bd
       -0.019642556 0.028260652 -0.09412837 -0.06062952
000100 c3 c0 d7 bd 35 0d a8 bd a2 49 c4 bd 71 51 d2 bc
       -0.10534813 -0.08205644 -0.09584357 -0.0256736
000110 b6 be 49 bd a8 73 e6 3c ef ff e4 3d 35 de 62 3d
       -0.04925414 0.028131321 0.11181628 0.055387694
000120 96 5f 1a 3d 07 ad 39 3d 82 c7 09 3d 83 b1 f2 3c
       0.037688814 0.045331027 0.03363753 0.02962566
000130 11 a8 c0 bd 32 53 21 3d 71 28 57 3c 68 2a 4f 3d
       -0.09407056 0.03938598 0.013132201 0.05057755
000140 63 ad 54 bc 30 fb 0e 3c 0e a8 25 3b 55 93 49 3d
       -0.012980792 0.00872688 0.002527717 0.049212772
000150 54 22 bd bd 6b 4c 97 3d 64 20 36 3d e4 46 34 3d
       -0.09235063 0.073876224 0.044464484 0.04401292
000160 80 cf 37 3d dd 94 2a 3d 68 23 59 bd 17 b2 dc bc
       0.04487562 0.041645873 -0.05301228 -0.026940389
000170 0d 40 33 bd d9 d8 9b 3c 7e 9c 8b 3b 6f 43 6a 3d
       -0.043762255 0.0190243 0.0042605987 0.057193216
000180 12 91 6f 3c 38 37 c3 bb 61 7d 56 3d b0 22 a3 3c
       0.01462199 -0.0059575103 0.052365664 0.019914001
000190 98 67 1b bd 61 0b e0 bc 37 91 a5 bc d3 71 79 bc
       -0.03794059 -0.027349176 -0.020210845 -0.015224892
0001a0 04 b9 86 bd 8f 0b d4 bd 4e ce aa bc 79 5c 45 bd
       -0.06578258 -0.10353767 -0.020850327 -0.048183892
0001b0 8b 33 5a 3b b3 c2 82 3c 44 c9 81 3c e2 bc 9c 3d
       0.0033294882 0.01596198 0.015843041 0.07653214
0001c0 0d 25 2f 3d 5e 29 a9 3d 57 e2 3a 3d 3f c8 72 bd
       0.042759944 0.08259843 0.04562601 -0.059273
0001d0 51 99 b5 bc 2b 7b 69 3c 7f c8 40 bd 20 5c 3f bd
       -0.022167834 0.014250557 -0.047066208 -0.046718717
0001e0 4f f7 47 3d fa c8 33 bd 87 2d 5c bd ca 35 a5 bd
       0.048819836 -0.043892838 -0.053754356 -0.080669
0001f0 36 fb 43 3d 42 95 ce 3d 17 24 f1 3c 99 a5 1c 3c
       0.047846995 0.100870624 0.029436154 0.009560966
000200 44 3f 46 3d aa 4a 98 3c 57 d7 6f bc 55 06 06 3d
       0.04840018 0.01859029 -0.014638743 0.032720882
000210 99 91 2d 3d ff c4 25 bd 94 aa 95 3d cc 4a d5 bc
       0.04237518 -0.040471073 0.07307926 -0.026036642
000220 02 ab 2d 3c bf 42 02 3d 1d 71 51 3d 8e 91 ae bc
       0.0105998535 0.031801935 0.051133264 -0.02130964
000230 f0 d8 0b be a8 39 9d bd 9e 6e 35 bd 9d 2b fb bd
       -0.13656974 -0.07677013 -0.044294946 -0.12264178
000240 16 8e ff bc 7a 74 26 3d 71 ff 4b bd b1 9d 86 3d
       -0.031195682 0.040638424 -0.049804155 0.06573046
000250 e6 74 ba 3d 59 cb 5f 3d b5 5f 7b bd df c2 9e 3d
       0.09104328 0.054637287 -0.06137057 0.077520125
000260 1a 4a 01 3c 40 42 20 bd 34 f4 c7 bd e2 ea 1c 3c
       0.007891202 -0.03912568 -0.09763375 0.009577485
000270 1b d9 b9 3a 45 65 58 bc 47 a9 19 bd c1 b2 3f bd
       0.0014179082 -0.013207738 -0.03751495 -0.046801332
000280 03 0f 6f bc 21 95 0f 3c c8 41 50 3c a6 c9 1b bd
       -0.014590981 0.008763582 0.012710996 -0.038034104
000290 d8 1d a3 bd 07 44 1c 3b db c3 df bb e1 b3 64 bd
       -0.079646766 0.0023844258 -0.0068287677 -0.05583561
0002a0 09 67 62 bd be 8d 68 3d 2d 17 9d 3b 66 81 6c bd
       -0.055274043 0.0567758 0.0047940225 -0.05774059
0002b0 f6 98 2a 3b 35 8f ab bc 19 36 22 bd f1 aa 10 bd
       0.0026031113 -0.02094231 -0.039602373 -0.035319272
0002c0 84 fd 05 3d 26 ba 65 3d b7 38 f6 bc 3e e9 f3 3d
       0.032712474 0.056085728 -0.03005634 0.11909722
0002d0 db a0 c9 3c 91 6d da 3d 4f 84 90 3d c0 5c 91 3d
       0.024612835 0.106654294 0.07056486 0.07097769
0002e0 f3 ad 44 bd e7 80 a9 3d a9 95 80 ba 2c 3e e0 bd
       -0.048017453 0.08276539 -0.0009810227 -0.10949358
0002f0 db 9c 47 bd ff b3 ae 3b 7a f8 da bd c8 14 a1 bd
       -0.048733573 0.005331516 -0.106919244 -0.07865292
000300 c6 2a 8d bd 35 b5 e5 bb 0a b0 0d bd 3c 62 4e bd
       -0.06892924 -0.007010127 -0.034591712 -0.050386652
000310 28 8a 08 3d 04 a7 80 bc 3f 5a 9c bb 5f ad 10 3c
       0.03333488 -0.01570464 -0.0047715004 0.008830397
000320 59 2d 55 bd b5 b0 18 3c 32 6d 25 3d 67 51 1b bc
       -0.0520452 0.009319474 0.04038734 -0.009479857
000330 8b 56 25 bd ae 3d a0 bc 66 52 38 bd 3a 13 33 bd
       -0.040365737 -0.019560661 -0.045000456 -0.043719508
000340 d5 23 4b 3a e2 06 08 3c 37 1a 4e bd 0b 03 95 bc
       0.0007749175 0.008302422 -0.05031797 -0.018189928
000350 41 e0 21 3d 83 43 80 bc 01 cb 66 bd c6 49 a1 3c
       0.039520506 -0.015657192 -0.056345943 0.019688498
000360 00 3c 5c bd 65 e2 05 3c 5a b2 82 bd 24 00 dd bc
       -0.053768158 0.008171652 -0.06381674 -0.026977606
000370 1e c8 a3 bd e5 c3 19 3c 44 b4 a5 bc 84 e3 e2 bc
       -0.07997154 0.009385084 -0.020227559 -0.027696379
000380 a1 b4 9c bc 11 49 09 bd fd fb b4 3d 59 2a 29 3d
       -0.0191291 -0.033516947 0.088371255 0.04130015
000390 c4 c9 3d bd 7b e0 ac 3d ff d8 cf 3d 68 ba 5c 3d
       -0.046334997 0.08441254 0.101488106 0.05388871
0003a0 6e 04 8c bd 84 18 06 3d b9 0c 07 3d 67 d2 11 3c
       -0.068367824 0.032738224 0.032971118 0.0089002615
0003b0 d8 39 ab ba 0b 19 18 3d 34 94 b7 bc 1d c7 98 3c
       -0.0013063503 0.037133258 -0.022409536 0.018649632
0003c0 82 63 61 be 15 61 5a 3e fe b8 55 3e d3 8f ac 3b
       -0.22010615 0.21326096 0.2087135 0.0052661686
0003d0 aa 1e 1b bd 47 1c f2 bb 50 be 05 bd 51 e8 b8 3c
       -0.03787104 -0.007388625 -0.0326522 0.022571715
0003e0 ea 8e 66 bd ae 09 79 3c 68 58 f7 bb e0 37 8d 3e
       -0.056288637 0.015200062 -0.0075483806 0.27581692
0003f0 c2 f5 39 bd f8 88 54 bd f0 30 7a bc 3e a3 09 bd
       -0.04540039 -0.051888436 -0.015270457 -0.033602946

mlp.0.bias f4 [128]
000000 8e 31 06 3d ae fa 6e 3d a4 f7 96 3d 3f c4 99 3d
       0.032762103 0.058344536 0.073714525 0.07508134
000010 16 33 eb bc c1 f1 83 3c ec 72 77 3e 36 e5 b0 bd
       -0.028710883 0.016106488 0.24164933 -0.086374685
000020 f9 00 e3 3d c1 7e 74 3e 9d 37 a8 bb f4 8b 77 bd
       0.1108417 0.23876478 -0.0051335827 -0.060436204
000030 f2 1c b7 3d a3 64 d1 3d a1 f6 58 3d 03 e8 c5 3c
       0.08941068 0.10224273 0.05296958 0.024158483
000040 e4 53 12 be e0 29 a6 bd 15 a6 83 3d 13 7c 5a bd
       -0.14289814 -0.08113456 0.06428162 -0.053340983
000050 58 9b 51 bd ce cc bf 3d 2b a0 12 be 61 8e 14 3b
       -0.051173538 0.09365235 -0.14318912 0.0022667872
000060 d7 b3 ca 3d 59 9d 2a bd e0 a1 05 bd 38 ba 8f 3e
       0.09897583 -0.041653965 -0.03262508 0.2807176
000070 47 be 8c 3d 3b 1c d7 bd 6f 46 f5 bd 25 cf 9f bd
       0.0687223 -0.105034314 -0.11976325 -0.078031816
000080 92 c4 7b 3d 43 99 4f bc 13 3d bc 3d be 86 47 3d
       0.06146676 -0.012670818 0.091913365 0.048712485
000090 eb e5 c9 bd 9e 52 6d 3e 71 a6 8a 3d a9 e1 fb bc
       -0.098583065 0.23176047 0.067700274 -0.030747252
0000a0 d2 8d ab 3c 73 74 9a 3e 6c 76 75 bc 46 ed e0 bd
       0.020941649 0.3016697 -0.014981847 -0.10982756
0000b0 00 b7 18 3c 45 9d 16 3e 02 c3 f5 bb e1 a5 b5 3d
       0.009320974 0.14708431 -0.0075000534 0.088695295
0000c0 64 ea 8a bd 7c 91 5d 3d 70 54 2d 3e 5a da 29 3d
       -0.06782988 0.054093823 0.16926742 0.041468002
0000d0 cd cf d3 bc 1a 96 0b bd 66 a2 bf bd 95 34 23 be
       -0.025855923 -0.034078695 -0.09357147 -0.15938027
0000e0 72 f6 6c 3e 3e 69 bc bb 91 75 dc bd 9c 83 c8 3d
       0.23140886 -0.0057498505 -0.107646115 0.097907275
0000f0 84 56 d0 bc 57 ac 9e bc c6 6f 42 3d ca 1d 70 bd
       -0.025431879 -0.019369287 0.047469877 -0.05862216
000100 4e 53 7a 3d 35 4e c5 bd e5 50 94 bd 9e 79 a8 bd
       0.0611146 -0.096340574 -0.07241992 -0.08226322
000110 cd d4 3a 3d 24 7e 7f bc f7 49 a4 3d 31 16 48 3c
       0.0456131 -0.015594039 0.0802192 0.012212322
000120 a5 a9 01 3d bb fe 44 bd 42 3f 98 3c 87 b5 8e 3d
       0.031655926 -0.048094492 0.018584851 0.06968217
000130 c4 49 d2 bd 87 20 41 3e d3 57 1d bd fa ac 55 bd
       -0.10267976 0.18860064 -0.038413834 -0.052166916
000140 79 86 75 bd 44 2b 80 bd 41 a5 24 3b 17 e3 11 3e
       -0.059942696 -0.06258252 0.0025122913 0.14246784
000150 47 23 85 bd 19 5a 0f bd 5d 75 b7 3b 1a bd 04 be
       -0.06500869 -0.034998033 0.0055987076 -0.12962762
000160 f0 b3 5d bc 0e 40 98 bd 96 df fa 3d 55 ff a5 bd
       -0.01353167 -0.074340925 0.12249677 -0.08105341
000170 52 f6 8f 3d 36 11 cf bd 92 d0 92 bd 8d c1 01 bd
       0.07029404 -0.101107046 -0.07168688 -0.031678725
000180 23 fb 93 bd 1c ca eb 3c 2c ad c8 bd 55 f5 b4 3c
       -0.07225635 0.028782897 -0.09798655 0.02208964
000190 69 94 8b bc 5e 10 2e 3d b6 14 96 bd 63 a7 ee bd
       -0.01703854 0.042496078 -0.07328169 -0.1165302
0001a0 fb 12 cb bc 92 14 4a be 54 3e 98 bd 26 5e 7b 3e
       -0.024789324 -0.1973441 -0.07433763 0.24547634
0001b0 b6 4c 25 bb 10 a2 46 3e 0d 24 18 3c 86 76 a6 bc
       -0.0025222725 0.1939776 0.009285939 -0.020320188
0001c0 5e d8 46 3e 18 87 e8 bd 34 5b 97 3d 42 5a ce bc
       0.19418475 -0.11353892 0.073904425 -0.025189523
0001d0 1a dd f1 bc f2 48 af bd 3c a2 36 bd 85 06 a9 bd
       -0.029524375 -0.08558835 -0.044588313 -0.082531966
0001e0 57 04 27 bd b7 5c 66 3c fb 55 92 bd c8 00 1d 3e
       -0.040775623 0.014060191 -0.07145306 0.1533233
0001f0 da b1 9b 3d 51 a0 d0 bd b1 cc 03 bd 98 d0 88 bd
       0.07602282 -0.10186828 -0.03217763 -0.06680411

mlp.2.weight f4 [128, 128]
000000 7c a6 9e bc c5 f8 15 3d d5 95 0b 3c 66 ed 16 bc
       -0.019366495 0.0366142 0.008519609 -0.009211874
000010 76 c2 b0 39 e4 34 63 bd 4b 1c 73 ba 6e ee b2 3c
       0.0003371422 -0.055470362 -0.00092739303 0.021842208
000020 63 36 7b 3b 9a 6d 8b bc a6 62 15 3d 12 6b 1c 3d
       0.0038331978 -0.017020036 0.03647103 0.038188048
000030 3a 36 58 3b ec 0e ca 3c 13 44 84 3a e4 c6 11 bc
       0.0032991306 0.024665318 0.0010091088 -0.008897517
000040 96 cf 0a 3c 1c bd 60 3d d8 5f 18 bd 7c 55 29 3d
       0.008472344 0.05486785 -0.03720078 0.04134129
000050 4f 20 4f 3b 45 8d 70 bb 3b ff 38 3d bf c6 4d bd
       0.003160495 -0.0036705297 0.04516528 -0.050238367
000060 3c 28 a7 3c c7 86 90 3a 17 a9 b2 3c 7b e1 df 3b
       0.020404927 0.0011026495 0.021809144 0.0068322993
000070 5a 77 48 bb d2 35 fb 3c 70 c8 8a bb 70 3b 65 bb
       -0.0030588717 0.030665312 -0.00423532 -0.0034978054
000080 cd 6f 01 3b f0 bb 36 bc e6 58 3f bc 39 c5 b9 bb
       0.0019750476 -0.011153206 -0.01167891 -0.0056692627
000090 f2 74 8e 3a 02 c9 b9 bb 95 81 12 bd 3f 6f 5c bc
       0.0010868593 -0.005669714 -0.03576811 -0.0134542575
0000a0 6f db 11 3c be 9b 89 38 d6 9d f6 3c 0b 14 80 3c
       0.008902415 6.561678e-05 0.030104559 0.015634557
0000b0 8d 30 30 bd 00 c0 eb 3b 30 7d 4a bd c6 74 b6 3b
       -0.04301505 0.007194519 -0.049435794 0.0055681197
0000c0 2b f4 e9 bb bc 3d ba bc 85 9d 07 3d f1 86 02 3c
       -0.007139703 -0.022734515 0.033109207 0.007966743
0000d0 c2 8d eb 3c b6 dd 2d bc d7 9d 0a 3d 49 d4 70 ba
       0.028754119 -0.010611942 0.033841934 -0.00091869064
0000e0 49 a0 59 bc 9a d3 6b 3d be 96 1f 3d 87 8b 88 bc
       -0.013282844 0.057574846 0.03896212 -0.016668094
0000f0 fe be 61 3c 19 09 a2 3c ba bf a8 bc f0 b6 17 bb
       0.013778446 0.019779729 -0.020599235 -0.002314981
000100 87 5c a2 3b 62 49 69 3c 42 7b 3a 3d cc d5 46 3d
       0.004954878 0.014238687 0.045527704 0.048543736
000110 2c b2 f7 bc 03 c5 48 bd 2f 11 09 bd a4 73 26 bd
       -0.030236326 -0.04901601 -0.033463653 -0.040637627
000120 0b c6 19 3d 34 db 41 3a 6f a2 31 3d b4 89 f7 3a
       0.037542384 0.00073950295 0.0433678 0.0018885643
000130 ae 40 92 bc 42 b4 dc bc 73 41 ec bb 9a 12 36 3d
       -0.017853107 -0.026941422 -0.0072099506 0.044451334
000140 c0 e3 2b 3d 49 41 8e 3b 35 03 0d bd 52 05 ab bb
       0.041965246 0.0043412787 -0.034426887 -0.00521914
000150 d8 6e 48 3d ea 4f 31 3d 65 8c d7 bc f0 ce 16 3d
       0.048933834 0.043289103 -0.026312063 0.036818445
000160 a7 78 de 3b 06 e2 7e 3c 2e 44 a6 bc 5d 05 4a 3c
       0.006789285 0.015556818 -0.020296182 0.01233038
000170 5c 96 d5 b9 78 21 25 3d 52 77 03 3d 47 12 ba 3c
       -0.00040738552 0.04031512 0.032096215 0.022713793
000180 26 16 5a 3d f3 fd 6f bc a1 ac 33 3d 6f 93 52 bd
       0.05324378 -0.014647949 0.043865804 -0.051410135
000190 6d 5e 28 3c ab c2 1f bc 8c 0d a5 3c ae ac e9 3c
       0.010276419 -0.009751002 0.020148061 0.028524723
0001a0 4d b9 80 3c e9 c7 82 bc fb 33 1b bc ac c0 f4 bc
       0.015713358 -0.015964465 -0.009472842 -0.02987703
0001b0 36 60 1f 3b 97 c7 ef 3c 5d af be 3a c1 c6 2b 3d
       0.002431882 0.029269977 0.0014548112 0.041937593
0001c0 e4 2c 15 3c 4e ab 33 3c 57 5e 9c 3b 13 86 23 3d
       0.009104941 0.010966135 0.0047719884 0.039922785
0001d0 c7 72 2e 3c a9 16 a2 bb 30 03 bd 3b d8 8c 67 3c
       0.010647482 -0.004946549 0.0057682022 0.014132701
0001e0 ef 38 4a 3d de 86 56 bd ab f9 d5 3c 18 32 54 3d
       0.049370702 -0.052374713 0.026120028 0.051805586
0001f0 12 9f 32 bd 90 16 a5 35 2d 9d 43 3d de 2c 82 3c
       -0.043608733 1.2300025e-06 0.047757316 0.015890535
000200 57 9a 83 3c 15 4b 16 3b 09 04 8e 3c 79 f7 d0 bc
       0.016064806 0.0022932936 0.017335908 -0.02550863
000210 55 78 12 bc 14 a1 8c 3c 7b 50 c3 3c b3 df 43 3c
       -0.008939822 0.017166652 0.023842087 0.0119551895
000220 19 ac 13 3c 7c 41 ca 3c d5 06 2f bd 1b d7 20 bb
       0.009013199 0.024689429 -0.042731125 -0.0024542275
000230 44 80 43 3c 7f d1 c4 3a 2e 57 96 3c 78 de 76 3c
       0.011932436 0.0015016048 0.018352117 0.015067689
000240 9d fa f7 bb d7 6a d0 3a bc 08 46 3d 80 ea f3 bb
       -0.007567717 0.0015900981 0.048348173 -0.007443726
000250 a3 7f 8e bb 2e d3 fc 3c d7 52 1a 3b 59 9c d1 bb
       -0.0043487116 0.030862417 0.0023547912 -0.006396812
000260 4f c2 f1 3b f9 96 0d bb 3d 90 e9 bc 1b d1 bd bc
       0.0073778997 -0.002160488 -0.028511161 -0.023170998
000270 f6 90 c5 38 f2 63 00 bd 69 3b 06 bd 2c 36 0c bd
       9.420693e-05 -0.031345315 -0.0327715 -0.03423135
000280 1e 99 f7 3c 97 eb c7 bc 00 76 6c bb 2a a8 04 3d
       0.03022438 -0.02440433 -0.0036081076 0.032386936
000290 92 ca 29 bd 69 5a 03 3b 7b 7a 37 3d 3c d2 e3 3b
       -0.04145295 0.0020042902 0.04479454 0.006952552
0002a0 80 6e 65 bc 39 16 89 bc 83 85 33 bd de 75 89 bc
       -0.014003396 -0.01673423 -0.0438285 -0.016779836
0002b0 e3 c2 24 3d ad 49 c1 3b 7f 19 ad 3c 96 ba 18 3d
       0.04022492 0.0058986754 0.021130322 0.037287317
0002c0 74 86 f4 3c 7f c0 e0 bc 94 74 b8 bc 9e eb 71 3c
       0.029849268 -0.02743554 -0.022516526 0.014765648
0002d0 d8 5a 79 bc fa 45 c8 bc 60 21 8d ba 6b 51 f6 bc
       -0.015219413 -0.02444743 -0.0010767393 -0.03006812
0002e0 d4 ae 84 3c 4f 1a e8 bc fe af cf bc a2 d5 50 3b
       0.016196646 -0.028332857 -0.025352474 0.0031865616
0002f0 84 98 a5 bb eb e5 08 bd c7 39 ee bb ed f0 3e bc
       -0.0050535817 -0.03342239 -0.007270071 -0.011654121
000300 33 4a 91 bd 53 21 89 3c 44 01 22 bd 68 57 7b 3b
       -0.070942305 0.016739523 -0.03955199 0.0038351659
000310 6b 3a 48 3d 0f 5e fc b9 1a ef 39 3d 91 59 3d 3d
       0.048883837 -0.00048135265 0.04539404 0.046227995
000320 42 5b e3 bc 9f 93 2e bc 5c 27 c2 bc 37 77 00 3d
       -0.027753476 -0.010655313 -0.023700409 0.031363692
000330 7f a8 82 bc 44 8f 14 ba 31 40 00 3b ed 96 ba bc
       -0.015949486 -0.00056671 0.001956951 -0.022777045
000340 d2 d4 0a bd f6 3b 73 bc 59 5f 95 3c 07 d2 20 3d
       -0.033894368 -0.014845839 0.018233942 0.039262798
000350 06 b5 97 3b 22 01 4c bd fb bb a3 3c 94 a2 e0 bc
       0.004629734 -0.049805768 0.019987097 -0.027421273
000360 a2 ce 07 bd 2d 9a 24 3c 4a 76 18 bc 4d d3 47 bc
       -0.033156045 0.010046524 -0.009305546 -0.012196374
000370 85 0d 45 3d d7 a8 00 bd 1e d2 48 bd 24 18 f6 bc
       0.048108596 -0.03141102 -0.04902851 -0.030040808
000380 bd 82 e1 bc f4 94 2f bc bc 66 98 bc 7a 82 9a bb
       -0.027528161 -0.010716666 -0.018603675 -0.004715261
000390 83 11 12 bd 81 89 f5 bb c1 57 c6 bc 8d 99 45 bc
       -0.03566123 -0.0074931984 -0.024211766 -0.012060535
0003a0 75 a6 24 bd f1 b5 5a 3a 2a 4e c5 bc 10 ed 80 bc
       -0.04019781 0.00083431514 -0.024085123 -0.01573804
0003b0 b9 f4 38 bd 45 36 1a 3a 16 80 cf bb 8b e5 07 bd
       -0.04515526 0.00058827206 -0.0063324077 -0.033177894
0003c0 a4 a8 90 bc 25 25 15 bd 04 f6 a5 bc 54 3b 82 bc
       -0.01765854 -0.036412377 -0.020258911 -0.01589743
0003d0 19 d5 d7 bb 9c 44 04 bc e6 3d 0f bd aa 27 fa bc
       -0.0065866825 -0.008072998 -0.03497114 -0.030536491
0003e0 ec 5a ee bb b0 00 40 bc cc b1 10 bd 0b 23 c5 bc
       -0.0072740223 -0.011718914 -0.03532581 -0.024064561
0003f0 30 a4 99 3c 0f b0 2b 3b e8 a7 37 bd 30 b5 8e 3c
       0.018755049 0.0026197468 -0.044837862 0.017420381

mlp.2.bias f4 [128]
000000 45 d7 11 3d a9 e1 72 bc 24 e5 5f bd 5f f9 d6 bc
       0.035605688 -0.014824309 -0.054661885 -0.026241956
000010 e9 9a 80 bd 00 a3 da bd 27 5d 25 be 28 08 3d bd
       -0.06279547 -0.10675621 -0.16148816 -0.046150357
000020 3b 81 ad bc 73 71 01 be 37 31 6b 3b 03 d0 0f be
       -0.021179786 -0.12640934 0.0035887489 -0.14044194
000030 1f 53 c3 bc 4c 69 b1 3c 79 30 ad 3d bc 81 66 bd
       -0.023843346 0.021656655 0.08456511 -0.056276068
000040 24 b3 bb 3c 75 5c ca bd df e5 1c 3c 57 f1 0f 3e
       0.02291257 -0.09880916 0.00957629 0.14056908
000050 89 9b 0e be ff aa 36 bd 86 98 35 bb 42 66 d9 bc
       -0.1392652 -0.04459667 -0.002770932 -0.026538018
000060 5a fe 9e 3d 82 57 91 3c 49 27 b8 3c c6 8d e8 3d
       0.077633575 0.017741922 0.02247967 0.11355166
000070 6a 35 6b bd 46 00 a0 bd 90 b2 0f bc ec c3 79 bd
       -0.057423986 -0.07812552 -0.0087706 -0.06097786
000080 6b 87 58 bc e4 ca 25 bd 56 4c 08 be f8 af 4b bd
       -0.01321588 -0.040476695 -0.1331037 -0.049728364
000090 c3 4c 1e bc 1b 57 0f be 28 a1 04 bd 3b 1c 0d 3c
       -0.009661856 -0.13998072 -0.032380253 0.008612688
0000a0 1b 20 57 bd 41 9d 37 3b 59 ac 12 be 63 8a f7 3b
       -0.052520853 0.0028017315 -0.14323558 0.007554339
0000b0 30 9c 1f 3c cb aa a9 3d 44 f2 e8 bd 7e 4f fd bd
       0.009741828 0.08284529 -0.113743335 -0.123686776
0000c0 d8 f6 b2 bd 58 5f 3e 3a f0 a2 b0 3c b2 44 1e bd
       -0.08738488 0.0007262132 0.02156207 -0.03863973
0000d0 f6 02 04 be ab 2a 06 3e b2 8e 3c bd 7d ba 02 be
       -0.12891755 0.13102214 -0.046034522 -0.12766452
0000e0 1b e9 5e 3b f0 d1 6b 3d 19 44 f5 bd 5a 50 94 3d
       0.0034013453 0.05757326 -0.11975879 0.07241888
0000f0 1b 8c 0a 3e 9d ab 41 3e 76 52 eb 3d 56 c6 8c 3b
       0.13530008 0.18913122 0.114903376 0.0042961044
000100 c5 af c9 bd 01 02 cb bd f5 39 39 bd 16 38 b8 3d
       -0.098479785 -0.099124916 -0.045221288 0.089950725
000110 f6 52 2c 3e ab 9f 3b 3c 1e a6 8c bd e6 49 c2 bd
       0.16828522 0.011451642 -0.06867622 -0.09486751
000120 98 83 bf ba a9 db 82 3d cc 11 f3 3d bc 9d 3c bd
       -0.0014611362 0.06389553 0.11868629 -0.046048865
000130 07 be c1 bd e7 ca 34 bb 17 75 d8 3d 81 a7 74 3d
       -0.09460073 -0.002758676 0.10569208 0.059730057
000140 c2 ac 3d bd 28 ee ac bc a4 3d ac bc 4b 67 f5 bc
       -0.046307333 -0.021109655 -0.021025486 -0.02995648
000150 2a 19 b2 3c 7f 44 af bd 36 3c 60 3d 9c 15 20 bd
       0.021740515 -0.085579865 0.05474492 -0.03908311
000160 0f d0 79 bd ae ca e5 bb 4c 4a 7f 3c a6 a6 48 bd
       -0.060989436 -0.0070126867 0.015581679 -0.048987053
000170 7c 4b 0b 3c cc a7 c0 3c e7 b7 33 3d a5 78 a8 3c
       0.008501884 0.023517512 0.043876555 0.02056534
000180 0f 76 dd bc ea b2 aa 3d d7 53 16 bd ac 31 00 be
       -0.027033834 0.083349064 -0.03670105 -0.12518948
000190 9c 88 e0 3b 27 bd c3 3d 03 4c 6d 3d cc ea 52 bc
       0.0068522226 0.09557562 0.05793382 -0.012873363
0001a0 ba ca db 3c 72 ec 86 bd 8f ce a5 bd 4b 5b 88 bd
       0.026830066 -0.06588067 -0.080960386 -0.06658038
0001b0 d0 dd 68 bd be 0d 9f 3c e5 03 94 bd cf e2 ae 3c
       -0.056852162 0.019415732 -0.07227305 0.021348385
0001c0 53 c2 e0 3d 32 f2 fc bc fe a5 dc 3c 53 3d c2 bc
       0.109745644 -0.030877206 0.02693462 -0.023710882
0001d0 03 1d d7 bb 05 1d 98 bd 76 5e fe bd 01 cf 37 3d
       -0.0065647378 -0.0742741 -0.12420361 0.04487515
0001e0 07 50 82 bd fd ed ec bd 93 c7 66 bc 58 4d 69 3e
       -0.0636292 -0.1156883 -0.014085668 0.2278341
0001f0 fc 0e c8 bd a3 10 ed 3d 1c 1e 9a bd 19 9a ce 3d
       -0.09768483 0.11575439 -0.07525274 0.100879855

mlp.4.weight f4 [128, 128]
000000 33 e7 82 bc 88 3b e7 3a b7 7b 70 bc 39 a7 82 3b
       -0.015979385 0.0017641643 -0.014677933 0.0039872197
000010 28 c1 67 bc e9 77 80 3c fb 18 94 bc 0c 91 95 bb
       -0.014145173 0.015682178 -0.018078318 -0.00456441
000020 75 b7 1d bd a2 33 b6 bc 9c e5 20 bc bb c4 35 bd
       -0.038505036 -0.022241417 -0.009820368 -0.04437707
000030 fb b8 30 bc 2b 23 d0 ba af 71 cc 3c 47 43 26 bc
       -0.01078629 -0.0015879621 0.024956552 -0.010147876
000040 3d 97 68 3b 91 05 a2 bc 82 5b c6 bc 56 75 3a 3d
       0.0035490536 -0.019778045 -0.024213556 0.045522057
000050 2e 56 37 bd c8 97 89 bc 83 b3 15 3d 38 91 f6 3c
       -0.04475992 -0.016796008 0.03654815 0.030098543
000060 0b 0a 8e bb a9 a4 41 3d aa f7 2f 3c 14 a7 a0 3c
       -0.0043346933 0.047276173 0.0107402 0.019610919
000070 db 77 f8 3b 30 3a c6 3c 57 c6 70 bc 27 bd 60 3c
       0.0075826473 0.024197668 -0.014695725 0.013716972
000080 f4 02 fa bc 97 3e 44 bd dd 8c bc 3a 26 0b 01 3d
       -0.030518986 -0.047911253 0.0014385242 0.031504773
000090 24 89 ed 3c 93 ea f9 3c 4d 4b 20 3c 19 5a b5 bc
       0.028996058 0.030507362 0.009783578 -0.022137688
0000a0 8c fb 65 3c 17 89 99 3c 53 1b 81 3c 7e f4 32 3c
       0.014037024 0.018742127 0.0157601 0.010922549
0000b0 39 cc 6f 3c be 02 39 3d fa 1e 44 3c 73 44 a8 3b
       0.014636093 0.04516863 0.011970276 0.005135113
0000c0 14 4d 7a bb 54 85 50 38 c6 28 54 3c d1 7a 2d 3c
       -0.0038192915 4.9715236e-05 0.012949174 0.010588364
0000d0 84 7d 1a bd 5b 09 86 3c c4 79 05 3c 4a d2 84 bc
       -0.037717357 0.016361883 0.008146707 -0.016213555
0000e0 f4 91 13 3c be d9 82 3c 70 e5 c4 3d a1 01 16 3c
       0.009006966 0.015972968 0.09614074 0.009155662
0000f0 d6 2d e8 3c 0a b1 34 3c 99 a2 2e 3d fb c8 d3 3b
       0.028342169 0.0110285375 0.042635534 0.0064631677
000100 53 7a b2 3c f4 b7 41 bd 04 ca e5 bb ea 56 72 3c
       0.021786844 -0.047294572 -0.0070126075 0.01479123
000110 ff 17 ee 3c bb ad 51 3d ed 20 ed ba a6 8c 56 3c
       0.029064177 0.051191073 -0.0018091478 0.013095057
000120 4a 0a 10 3d 3a 69 c3 bc d5 ce 14 3d 24 28 18 3c
       0.035166062 -0.023853887 0.036330063 0.009286914
000130 22 07 f1 bc c7 1f 70 bb d4 8a 0b 3d 5a 10 2c 3d
       -0.029422347 -0.0036640035 0.034067944 0.04200778
000140 cf 7a 14 bc 16 16 14 bd f8 3c 7e 3c 15 2c 2d 3d
       -0.009062483 -0.036153875 0.015517466 0.042278368
000150 5d c7 81 3c 83 35 8e bb b8 f0 00 bc e5 af ba 3c
       0.015842134 -0.004339875 -0.007869892 0.022788951
000160 8a 2c 1a 3c 7c d8 d9 39 4a a1 ff 3a 55 b8 2b 3c
       0.009410033 0.0004155076 0.0019503024 0.01048096
000170 bf 3f bd 3c c7 dd 27 3d ee 44 a7 3c 62 ba a6 bc
       0.023101686 0.040982988 0.02041861 -0.020352546
000180 dc e8 81 3c dd 21 99 3c da 69 61 3c 43 83 0d bc
       0.015858106 0.018692905 0.013758147 -0.008637252
000190 e3 f4 1f 3c 32 3c 9f 3c 10 4c e0 3c 0c 5f 72 3c
       0.009762975 0.019437883 0.02738002 0.014793169
0001a0 fa f1 18 3c 63 55 83 3c 17 f4 fe bc 58 ca 37 bc
       0.009335035 0.016031926 -0.03112225 -0.011217676
0001b0 48 57 ce bb 50 9b 62 3a 4d b2 04 bb f1 31 46 bc
       -0.006297026 0.0008644359 -0.0020247877 -0.012096868
0001c0 15 68 f2 3c 06 d8 aa bb 74 df aa 3c 3a 1a eb 3a
       0.029590646 -0.0052137403 0.020858504 0.0017936893
0001d0 81 37 d4 bc 19 20 43 3c e4 eb be bc 1c 7e 6a 3c
       -0.025905373 0.011909508 -0.02330584 0.014312293
0001e0 be 09 88 3c ff 8c 8f 3c 55 f9 a3 bb 33 ce 5a 3c
       0.016606208 0.017523287 -0.005004088 0.013354826
0001f0 26 56 67 bc 0c bd 19 3d 40 ae 0f bd f0 a9 fc 3c
       -0.0141196605 0.037533805 -0.035078287 0.030842751
000200 20 2a ac bc f7 51 3c 3c 90 74 99 3c eb 5d a4 bc
       -0.02101618 0.011494151 0.01873234 -0.020064315
000210 e0 66 2c bd f1 20 c4 3b 27 a2 9f b9 cc f3 2b bd
       -0.042090297 0.0059853722 -0.00030447656 -0.04198055
000220 5b bd 99 3c 14 1b 87 3c 17 09 cb 3c ee e7 53 bc
       0.01876705 0.016492404 0.024784608 -0.012933714
000230 e9 08 f0 bc 9b 93 bd 39 0c 3f 84 bc f2 f8 23 ba
       -0.029301124 0.00036158864 -0.016143344 -0.0006255052
000240 9d 0e 17 bd e2 e6 53 bc 67 69 18 3a 4b f2 d6 bc
       -0.03687917 -0.012933465 0.0005814046 -0.026238581
000250 f8 8a 01 bd 83 14 d7 ba a0 71 90 bc 5c ef ff 3c
       -0.03162667 -0.0016409311 -0.017632306 0.031242065
000260 b9 bf 77 3d b0 e0 fd 3b 4a a1 11 bc 2a e2 94 bc
       0.060485575 0.007747732 -0.008888552 -0.01817425
000270 4c 1e 18 3d f9 c1 1e bd 1e 57 63 3c 88 25 3a 3c
       0.03713827 -0.038759205 0.013875751 0.011361487
000280 ab 80 5b bc 4e 6b 13 bc 12 d3 54 bb 2e 7d 5e bd
       -0.013397376 -0.008997751 -0.003247444 -0.0543186
000290 aa 78 a7 bc 9d 42 3e bc 13 87 9d bb 4c 3a b9 3c
       -0.02044328 -0.0116125615 -0.004807362 0.022610806
0002a0 5c 6c 3c 3b 32 17 12 bd cc 4a 68 bd c2 e9 13 3d
       0.002875111 -0.035666652 -0.056711957 0.0361116
0002b0 4d d7 a5 ba ce 5c ce bb 13 09 7a 3c 30 b8 aa bc
       -0.0012652666 -0.0062976843 0.0152609525 -0.02083978
0002c0 69 6a ab bb a3 7c 14 3d 83 27 73 3c db 03 d6 bc
       -0.005231191 0.036251675 0.014840963 -0.026124885
0002d0 75 23 9c bc 72 85 00 bb ed ec fb 3c e7 e3 ed 3c
       -0.019059876 -0.001961079 0.030752623 0.029039336
0002e0 3b 79 a9 3b d0 f1 9a 3c e3 d4 3c bc cb fe 39 bd
       0.0051719225 0.018914133 -0.0115253655 -0.045409005
0002f0 40 0a 22 bb e6 a7 72 3d 5a af 0f bc 19 30 0a bd
       -0.0024725348 0.05924215 -0.008769834 -0.033737276
000300 52 06 a9 3c 48 2b 40 bc 69 e1 29 3c 9d 12 83 3c
       0.020632897 -0.011729069 0.010368683 0.016000086
000310 eb 8b a5 3c 21 55 a5 bc 44 2f 04 bd 72 c2 d2 bc
       0.02020832 -0.020182194 -0.03227164 -0.025727484
000320 c7 ff 62 3b 79 50 a9 3b d5 8a 15 bc b8 63 e2 bc
       0.0034637318 0.005167064 -0.009127338 -0.02763544
000330 ad ab 92 3c 7d d3 25 bc c5 fe a9 bc f8 6c 79 3b
       0.017904127 -0.0101212235 -0.020751366 0.0038059335
000340 78 58 92 bc 17 3f 68 3b c8 9c 56 3b e4 d1 00 bc
       -0.01786445 0.0035437995 0.0032747258 -0.007862542
000350 1a 2c d7 bb 8a cc 8b 3c 45 6b 6e 3d 7a 87 b1 3c
       -0.0065665366 0.017065305 0.05820777 0.021671046
000360 ee c1 37 3d 4e 71 56 3c 23 53 8c 3c 50 ac 2a 3d
       0.04486268 0.013088537 0.017129486 0.041668236
000370 3f 7f 16 bd 9c 96 96 3b 87 13 9d 3a 4c fb c1 3c
       -0.036742445 0.0045955908 0.0011983969 0.023679398
000380 68 0d bb 3b ce 17 43 3d f9 1b 6e 3c e9 e9 0c 3d
       0.0057083853 0.047630124 0.014533036 0.03440276
000390 37 77 38 bd e2 21 27 bd 08 e8 c7 bc 50 61 2e bc
       -0.045035567 -0.040803798 -0.024402633 -0.010643318
0003a0 2f 1b 06 bd c1 f7 19 3d af e2 43 3c b3 cb 9c 3c
       -0.032740768 0.037589792 0.011955901 0.0191401
0003b0 69 3e b6 3c 79 56 10 bd c5 f8 7e 3c b6 49 02 bd
       0.022246556 -0.035238717 0.015562241 -0.031808577
0003c0 83 93 a8 3b 5c b6 16 bc b7 81 ba bc d8 9a 2b 3d
       0.005144538 -0.009198751 -0.022766931 0.041895717
0003d0 3b 14 aa 3b 28 74 72 3c b8 54 99 bc 8a ba 4c bd
       0.0051904 0.014798202 -0.018717155 -0.049982585
0003e0 c1 2c b5 bc 5a 1d 88 3c 83 2d ef bb bc d4 83 3d
       -0.022116067 0.016615558 -0.0072991266 0.0643706
0003f0 ee db 0a 3d b3 cf 2a bd 2b f8 a0 3c 65 a2 92 bc
       0.033901148 -0.041701984 0.019649586 -0.017899701

mlp.4.bias f4 [128]
000000 54 a5 22 3c e9 b9 05 3e e6 7c 3a be fb 3c dd 3c
       0.009927113 0.130592 -0.18211707 0.027006617
000010 1f e6 98 3d 98 29 20 3d f9 a2 61 3d 37 2e ef 3d
       0.07465767 0.039102167 0.055087063 0.11678737
000020 c1 d7 d2 3d 7b de 12 be 9e 6b aa bd 43 93 d0 3d
       0.10295058 -0.14342682 -0.083213076 0.10184338
000030 79 f8 b9 bd 8c 3d e6 bd c4 8c fa 3c 22 06 ad 3d
       -0.090805955 -0.11242208 0.0305847 0.08448435
000040 64 4f 0c be 53 2a cf 3d 63 dd e3 bc 27 2e b6 bd
       -0.1370216 0.101154946 -0.027815526 -0.088955216
000050 e3 f4 55 3d 27 d3 75 bd dd 26 05 3e 7e a6 d2 bd
       0.052235495 -0.060015824 0.13003106 -0.10285662
000060 61 f0 74 3c 7a a3 33 3e 8f 45 10 be e9 59 30 3e
       0.014949889 0.1754283 -0.14089034 0.17221798
000070 87 f1 ac bd fe 07 0e 3e 0d 35 36 3e 00 ef 0f bc
       -0.08444505 0.13870236 0.17793675 -0.008785009
000080 de b6 8f bc 67 b5 75 3c 74 b5 f8 bd b7 0f 24 bd
       -0.017543253 0.014996863 -0.121439844 -0.04005405
000090 b3 3d 13 be c0 7d ae 3d 98 6a 18 be 9c 48 09 3e
       -0.14379005 0.08520079 -0.14884412 0.13406605
0000a0 a9 d1 08 3e e9 49 b1 bd 5f d1 10 bd 73 6a 2a bd
       0.13361229 -0.08656675 -0.03535592 -0.041605424
0000b0 aa c8 f6 3d aa d9 d3 bd a6 78 c9 bd 65 5e 32 be
       0.120499924 -0.103442505 -0.09837465 -0.17418821
0000c0 c6 f4 e0 bc d4 c1 f5 bd ae 0c f2 bd 49 c0 3f bb
       -0.027460467 -0.119998604 -0.11818825 -0.0029258898
0000d0 37 e6 ac bd 2c 3f 14 3c a5 6c 0f bd 1e 8c 18 3e
       -0.084423475 0.0090482645 -0.03501572 0.148972
0000e0 e9 db c0 bc 5c 0c 0b 3d c7 6c 0c bd f0 b5 9f bd
       -0.023542361 0.033947334 -0.034283426 -0.07798374
0000f0 c4 1f e4 bd de 4e c1 bd fd 8a 02 3e 1f 5e cf bd
       -0.11138871 -0.09438871 0.12748332 -0.10125374
000100 7a b1 9c bd 58 bb 05 3e aa 59 1b 3e af f8 1b 3e
       -0.076510385 0.13059747 0.15170923 0.15231584
000110 40 4e 52 3d c2 23 04 be 9c 01 24 be e9 ce 3a be
       0.051344156 -0.12904266 -0.16016239 -0.18242992
000120 5f ea 2e 3e da 2e 17 be a7 c1 2e be 3d e1 1c be
       0.17081593 -0.14763966 -0.1706606 -0.15320297
000130 76 3f 85 3b 83 58 c4 bc 6a 97 80 bd 5b 1a a2 3c
       0.004066403 -0.023967987 -0.0627888 0.019787958
000140 7e 65 2c 3e 21 eb 4f 3d 78 c1 05 3e dd 38 7c bd
       0.16835591 0.050761346 0.13062084 -0.061577667
000150 5c dc 5d 3d 6b 7f a7 bd 41 16 40 3e b9 1b a2 bd
       0.05416523 -0.081786 0.18758489 -0.07915444
000160 99 0b a3 bd 44 44 8c 3d 5a 07 6b bd c9 72 a9 bd
       -0.079611965 0.06848958 -0.057380058 -0.08273847
000170 ae d2 cb bd 78 89 0b bc c3 8a 2f 3e e8 71 df bc
       -0.09952293 -0.008516662 0.17142777 -0.027275994
000180 d2 34 8a 3c 99 60 88 3c f4 44 fd bd a6 fb 87 bd
       0.01687089 0.016647624 -0.123666674 -0.06639795
000190 e1 60 c0 bc ae 2d 12 be a0 a1 cd bd cc fe 97 3d
       -0.023483695 -0.14275238 -0.10040593 0.074216455
0001a0 f8 c5 94 bd f7 b2 e0 bd 6d c7 42 be 60 7f c2 bd
       -0.07264322 -0.10971635 -0.19021387 -0.09496951
0001b0 a7 af 3f 3e ff e7 0d 3e db f5 1c be 36 4f 09 3e
       0.1871935 0.1385803 -0.15328161 0.13409123
0001c0 d8 b5 84 bc a7 ba c0 b9 1d aa dd bd a1 b3 a3 3c
       -0.016199991 -0.0003676016 -0.10823462 0.019983115
0001d0 ac 75 1a bd 1a 77 3b bd 56 a6 39 3d ab df 2d be
       -0.037709877 -0.04576788 0.045324646 -0.16979854
0001e0 33 c6 ce bd b6 98 a8 3d fd db c7 bd 93 de c6 bd
       -0.10096397 0.08232252 -0.09758756 -0.097104214
0001f0 55 1d 00 3e fc 1b 24 bd 16 13 03 3e 09 8c 12 be
       0.1251119 -0.04006575 0.1280025 -0.14311232

mlp.6.weight f4 [128, 128]
000000 0d 80 14 bb 11 f8 ec bb a6 1f 35 3d 58 0b d4 3c
       -0.0022659332 -0.0072317203 0.044219635 0.025884315
000010 bd 1f 0a bd 70 55 d2 bc 4b 6e c8 ba 94 2e 49 bd
       -0.033721674 -0.025675505 -0.0015291659 -0.049116686
000020 5b a8 ab 3b 34 c7 c5 ba 51 db ee 3c f2 d7 ee 3b
       0.0052385754 -0.0015089274 0.029157313 0.0072889263
000030 a2 6e 8d bc 61 9f 30 ba 25 55 3d bc 7c 9c c7 3a
       -0.017264668 -0.00067376165 -0.011555945 0.0015229131
000040 4c b7 77 3c f5 66 22 3c 7a 65 a9 bc d3 da f2 3c
       0.015119385 0.009912242 -0.02067827 0.02964536
000050 2f a3 35 3c 4b 77 17 bc 29 0b 61 bc bd 2c 8f 3c
       0.011086269 -0.00924475 -0.013735571 0.017477388
000060 3d 30 27 bc 3e 6f 3d bd de 4f bd 3c ad f9 a5 bc
       -0.010204372 -0.046248667 0.023109373 -0.020260656
000070 e0 d2 86 bc ba e8 22 bd ed 24 07 bd c0 df 0a bd
       -0.016457975 -0.039772727 -0.0329942 -0.03390479
000080 a3 c3 78 3a 31 d8 07 3d 86 61 f1 3b 6e a5 8e bc
       0.00094896014 0.03316516 0.007366362 -0.017412867
000090 b3 71 a9 3c dc 98 02 bd 04 98 49 3c fd 34 23 bd
       0.020684099 -0.03188406 0.01230431 -0.039845455
0000a0 e5 d4 56 bc 48 cc 00 3b 42 80 ea bc 26 dc 87 3c
       -0.013112281 0.001965301 -0.028625611 0.016584467
0000b0 54 b4 50 bd f3 09 5e bc 5c 9b 01 bd ca 06 fe 3c
       -0.050953224 -0.013552177 -0.031642303 0.031009097
0000c0 62 da 00 bd 43 db 79 3d 24 5f 8c 3c d0 0b 13 bc
       -0.031458266 0.06100012 0.01713521 -0.008974984
0000d0 42 5f e2 3c cd 45 ad 3c 3d d2 30 bc 1c 58 96 3c
       0.027633313 0.021151448 -0.010792312 0.01835256
0000e0 83 1d df bc 02 96 a2 3c 17 23 52 3c 57 fe 0a bc
       -0.027235752 0.01984692 0.012825749 -0.008483491
0000f0 c3 04 73 bc 97 a1 68 bc f5 7b 27 bd 62 31 0c 3c
       -0.014832678 -0.014198682 -0.0408897 0.008556696
000100 13 73 0c 3c ca e6 04 bd 3b 55 03 3b 4e fb 26 3c
       0.008572358 -0.03244666 0.0020039815 0.010191752
000110 da 18 5e 3c 9e 7d 47 3d e7 bb e0 3c 12 42 a3 3c
       0.01355573 0.048703782 0.027433349 0.019928966
000120 ac 5e bd bc e0 85 96 3b 37 cb 69 3c 37 c6 18 3c
       -0.023116432 0.004593596 0.014269642 0.009324602
000130 4c 5e c6 3c 21 de d1 3c 89 32 01 bd b5 8d 1d bd
       0.024214886 0.025618615 -0.031542335 -0.03846522
000140 a8 98 45 bd 4c 0f 56 bd 22 7a 1d bd 89 65 7d 3c
       -0.048241287 -0.052260682 -0.038446553 0.015466102
000150 4c 9b fd bb cd cd 38 3d c5 b7 51 bc f2 23 2e bd
       -0.00773946 0.045118142 -0.012800162 -0.04251475
000160 de 7f 78 bb d3 3d 8f 3c c1 39 51 bc ed e5 ee 3b
       -0.0037918012 0.017485535 -0.012770117 0.007290593
000170 9c c1 9f 3c bb 97 76 3c 79 99 ca bb 75 65 12 bc
       0.0195015 0.015050824 -0.006182846 -0.008935322
000180 2d 01 5f 3a d0 fa a1 3c c6 3f b5 bb dc d0 0d 3d
       0.000850695 0.019772917 -0.005531284 0.034623012
000190 99 11 06 3c da 15 c3 3c 60 88 0a 3d b2 ee fb bc
       0.008182907 0.02381413 0.033821464 -0.030753467
0001a0 f0 cd 66 3b f4 c3 3f 3c d3 61 2a b9 96 7e fb 3b
       0.0035217963 0.011704434 -0.00016248906 0.0076750023
0001b0 54 17 ca bb f1 14 23 bd b6 73 f3 3b 51 a3 0f bd
       -0.0061673317 -0.039814893 0.0074295653 -0.03506786
0001c0 13 da f8 bc 50 80 05 3c 05 b3 13 3d e4 71 64 bb
       -0.030377423 0.008148268 0.0360594 -0.0034857923
0001d0 21 bb 07 bd 67 57 a9 3c 5a 40 8a b9 cf 16 02 3d
       -0.033137444 0.02067156 -0.00026369357 0.031760033
0001e0 3f 54 72 ba dd b2 92 bc ae 7f 20 bc a3 a4 33 3a
       -0.0009244121 -0.017907554 -0.009796066 0.0006852841
0001f0 8a 4e 4e bd 36 7f b2 3b 9f 74 1a bd 10 99 86 bc
       -0.05036787 0.0054472936 -0.037708875 -0.016430408
000200 15 a1 50 3c 60 5e be 3c af 42 72 bc 59 c5 4e bc
       0.012733717 0.02323836 -0.014786406 -0.012620294
000210 b1 cd 13 3d e6 91 7d 3c 6f 2b 97 3b 8e 57 81 3c
       0.036084834 0.015476679 0.004613332 0.01578882
000220 98 74 3c 3d be df 98 bb ba 61 ab bc 92 65 f0 3a
       0.04600963 -0.004665344 -0.020920623 0.0018340817
000230 7a ec 45 bd 6d 7b c9 bc 9e e1 37 3d a1 69 5f 3d
       -0.048321225 -0.024594987 0.0448929 0.054544095
000240 bb 10 36 bc 7b 63 1b 3c 2e 0c ae 3b 09 50 7f bc
       -0.011112387 0.009484167 0.0053115105 -0.015583047
000250 23 f5 e6 3c bd d3 64 bc bb f3 9f 3d 67 5d 03 bd
       0.028193062 -0.013966498 0.0781016 -0.032071497
000260 51 28 11 3d b4 aa 0e 3c b1 41 22 bd d9 3f 16 3d
       0.03543884 0.008707691 -0.03961343 0.036681984
000270 0e 46 75 3c c5 da 58 3d 66 f2 27 3d 5b 2f 14 3b
       0.014970316 0.05294301 0.041002654 0.0022611234
000280 b4 cf a5 39 39 51 b2 b9 d1 b3 d9 bb 5f 11 93 3c
       0.00031626003 -0.0003401132 -0.0066437502 0.01795262
000290 61 f3 42 39 51 fd a7 bb 19 8e 8f bb 5d 20 4c 3d
       0.00018591947 -0.005126633 -0.004380953 0.04983555
0002a0 3f 32 16 3d 40 bd 09 bb 32 50 5c bc f9 3c 48 b8
       0.036669012 -0.0021017343 -0.013446854 -4.77405e-05
0002b0 e7 8e 54 3c 32 32 b9 bc 98 9f 3e bc a8 c7 49 bd
       0.012973524 -0.022606943 -0.01163473 -0.049262673
0002c0 99 31 70 bb df fd 2c bd b2 b8 af bb d8 7e 09 bc
       -0.0036650656 -0.042234298 -0.0053625936 -0.008392058
0002d0 12 d5 0a bd 85 e1 94 bc fe 18 d2 ba f0 cf 0d 3d
       -0.033894606 -0.018173942 -0.0016029177 0.034622133
0002e0 5a 35 00 3d 4f 8a 6e 3c fb 0e 8d 3c 81 2a a5 bc
       0.03130088 0.0145593425 0.017219057 -0.020161869
0002f0 16 5e 1c bd 05 74 39 bc 6c f4 1b 3d ce a5 08 bd
       -0.038175665 -0.011319165 0.038074896 -0.03336125
000300 36 53 c8 3b 1d c7 5c 3d ed 0d 17 3d 28 be f9 3c
       0.006113435 0.053900827 0.036878515 0.030486181
000310 85 3d f9 3c 43 b0 c2 bc 77 78 e6 bb 74 d2 3f bd
       0.030424843 -0.023765689 -0.0070334035 -0.046831563
000320 6c b0 13 3c 9b 0a 8d bc a0 4a 90 bc 10 ea 33 bd
       0.00901423 -0.017216971 -0.017613709 -0.04392439
000330 f8 72 73 bb a9 b1 bc 3c f6 a2 f2 bb f1 42 2b 3b
       -0.0037147384 0.023033934 -0.0074046804 0.002613243
000340 2c 3e 9b ba 65 a4 b4 3b 52 36 1e 3d 2e a1 12 3c
       -0.001184409 0.0055127614 0.038626023 0.008949561
000350 a1 11 0e 3d 39 91 b5 bc 17 92 03 3d 7b 29 57 bc
       0.03468478 -0.022163974 0.032121744 -0.013132448
000360 58 ac 31 3d 1a ee 2b bb 66 ab cd 3c 28 a0 04 bd
       0.04337725 -0.002623445 0.025106143 -0.0323793
000370 b9 d0 b4 bc fa 7a 05 bd e6 00 49 3d 59 55 89 3b
       -0.022072183 -0.032587983 0.049073122 0.0041910824
000380 d5 1d 63 bb 8b 4c 0c 3d fa f8 8f bc 20 1a d8 ba
       -0.0034655232 0.034252685 -0.017574776 -0.0016487278
000390 a0 35 aa 3c 3f 44 68 bc 4e 08 15 bc 7e ed 77 3c
       0.020777524 -0.014176427 -0.009096218 0.015132306
0003a0 9b f6 2c bd 76 36 56 bd b3 8f 09 bd 5e 3f c6 bb
       -0.04222737 -0.05229803 -0.033584308 -0.0060500344
0003b0 3e e9 e2 3c cb 52 cb 3c 1c 4b e3 bc a3 4a cc 3c
       0.02769911 0.024819752 -0.027745776 0.024937933
0003c0 dc 34 ba 3c 10 d5 98 bb 97 0d 00 bd 0c ee 22 bd
       0.022730283 -0.004664071 -0.03126296 -0.0397778
0003d0 31 0c 89 bc e9 a4 3a 3c 2b 47 2d 3d a8 e1 65 bd
       -0.016729446 0.011391857 0.0423042 -0.056123406
0003e0 c2 e7 99 bc 4d 5e bd 3c 95 98 3b bc 25 18 af bc
       -0.018787269 0.023116255 -0.011449953 -0.021373818
0003f0 5a c4 0b 3d 85 bc a6 3c 2f 6e 70 3c e8 62 53 bd
       0.034122802 0.020353565 0.014674707 -0.051607996

mlp.6.bias f4 [128]
000000 05 95 9f bd f2 1a 15 3e 4b d5 bd bd 35 04 20 be
       -0.07792095 0.1456106 -0.09269198 -0.15626605
000010 3b 73 47 bd f1 8b 0e be 98 6f e0 bd f8 c1 aa 3a
       -0.048693877 -0.13920571 -0.10958785 0.0013027778
000020 32 72 35 3e 77 94 bb 3c 21 4e 53 bd 64 64 ca bd
       0.17719343 0.022897942 -0.05158818 -0.09882429
000030 60 63 35 3c 18 40 ad bc fc 71 0d 3e dc 26 5a 3c
       0.011071056 -0.021148726 0.13813013 0.013314929
000040 ab b8 02 be 25 f0 aa bd e2 64 ae 3d 34 88 39 3e
       -0.12765758 -0.08346585 0.085153356 0.18118364
000050 e9 cd a7 3c a2 cd 00 3e 0c b0 f4 ba 0c 39 fb bd
       0.020483928 0.12578443 -0.0018668189 -0.1226674
000060 fb b9 09 be f1 9b b7 bd 90 ef c8 bd a6 42 3a 3d
       -0.13449852 -0.0896529 -0.09811318 0.045473717
000070 c1 f8 c3 bc 3f 36 15 be 17 20 6f bc d6 f4 56 3c
       -0.023922326 -0.14571474 -0.014595053 0.013119897
000080 0c 5e cc 3d 62 7b 0f be 34 e0 ae bc e0 c5 dc bd
       0.099788755 -0.1401191 -0.021347143 -0.10779929
000090 9f 23 84 bd 2e 6c b8 bd 72 b3 3f 3c 4a 2d 3b 3e
       -0.06452107 -0.09005009 0.011700498 0.18278995
0000a0 8b f2 48 bd c9 a1 03 be 1b 0b 02 3e ec 44 dd bc
       -0.049059432 -0.12854685 0.12699549 -0.027010404
0000b0 78 26 23 bd 75 1d 81 bd 1e 25 b2 bc 37 88 df bd
       -0.03983161 -0.063044466 -0.021746214 -0.10914653
0000c0 7e a2 3b bd 1c b9 8f 3d b9 e4 1d 3e e1 08 3a 3e
       -0.04580926 0.07017729 0.15419282 0.1816745
0000d0 f5 c1 f0 bd 63 d5 16 be df 9d 26 3e 83 16 1c 3e
       -0.11755744 -0.14729838 0.1627116 0.15242963
0000e0 ad 14 17 be d5 ba 1c be 63 a5 8b 3b fc cd 11 3d
       -0.14753981 -0.15305646 0.004261659 0.035596833
0000f0 29 16 08 3e e3 2b 3a 3e 28 3b d4 3c 67 37 f9 3d
       0.13289703 0.18180804 0.025907114 0.1216877
000100 e7 be f8 3d 3b c2 d4 bc 8f d7 38 3d 5e f8 a9 3d
       0.12145787 -0.025971523 0.045127448 0.082993254
000110 09 0b b4 bd 9b 08 8e bd 7f af 8e ba 2c 84 6c bc
       -0.08791167 -0.06935235 -0.0010886042 -0.014435809
000120 1f 1a cc bd 51 cd 06 3c 80 d0 27 be 6c e4 fd 3d
       -0.0996592 0.008227662 -0.1638813 0.12397084
000130 d9 bc 41 bb 61 f7 58 bd 75 11 38 3e c3 18 c5 3d
       -0.0029562025 -0.052970294 0.1797541 0.096238635
000140 c6 dc 33 3e fc c6 9b bd 47 e6 e2 bd 72 6e cc 3d
       0.17564687 -0.07606313 -0.11079078 0.09982003
000150 3b ed c7 3d 71 27 de 3d e8 57 a6 bd f5 1e c4 bd
       0.09762045 0.108473666 -0.081222355 -0.09576217
000160 e7 20 44 bd b3 31 da bd 58 14 07 be 34 34 17 bd
       -0.04788294 -0.106540106 -0.13191354 -0.03691502
000170 52 ef 4b bd af c2 ac 3d 27 56 37 3e 91 20 14 be
       -0.04978878 0.084355704 0.17903958 -0.14465548
000180 09 f0 c5 bd cb c5 cd bd f1 21 ef bd 57 af c4 bd
       -0.09664924 -0.10047492 -0.11676396 -0.09603756
000190 e9 23 3b 3e 8a 37 21 3b 44 d9 b0 bd a5 47 e7 3d
       0.18275417 0.0024599754 -0.0863519 0.11292962
0001a0 97 dd cf bd 97 b0 16 3e 86 76 b3 bd 4f b5 e8 bd
       -0.10149687 0.14715801 -0.08762841 -0.11362707
0001b0 3e 49 28 3e f6 30 68 bd 7e 7a 39 be 15 fd de bd
       0.1643419 -0.056687318 -0.18113133 -0.10888115
0001c0 ff 96 0c be c3 ce a5 3d 09 cf 34 3e 86 18 f7 bc
       -0.13729475 0.08096077 0.17657103 -0.03016306
0001d0 bf e7 af bd 6f 5a fe bd 2f 0f 03 be 74 f9 27 3e
       -0.08589124 -0.124195926 -0.12798761 0.16403753
0001e0 02 eb c1 3d d1 40 35 3e bc 33 93 3a 86 bc 12 3e
       0.09468652 0.17700507 0.0011230628 0.14329728
0001f0 52 ec a1 3d a4 f4 b3 bc 3a 2d ea 3c 10 2d 24 3e
       0.07906403 -0.02196724 0.028586019 0.16032815

mlp.8.weight f4 [4, 128]
000000 7a 73 31 bd 91 79 1a 3d db d6 94 3c 3c bc 25 bd
       -0.043323018 0.03771359 0.018168857 -0.040462717
000010 c0 e1 c8 3c ba 51 26 3c c2 88 e9 bc 2a fc bc 3b
       0.024521708 0.010151321 -0.028507594 0.005767365
000020 25 28 4c 3d 46 51 d8 3c 27 b5 8a bc ec 87 4f bd
       0.049842972 0.026405942 -0.016932083 -0.050666735
000030 ad 7a ff bb cd 9d 2a 3c 35 c6 33 3d 51 31 76 3c
       -0.0077966065 0.010413599 0.043890197 0.015026406
000040 37 c6 63 3c 64 4f 2b 3c 65 3f 24 3b a3 d6 91 3d
       0.013902239 0.01045594 0.00250622 0.07121017
000050 7a b1 6d 3a df c4 2c 3d f2 a7 80 3c 69 99 0a bd
       0.00090672786 0.04217994 0.015705083 -0.03383771
000060 4c 37 ac bb 13 ec ba bc ff f8 29 bd 9b a1 b0 3b
       -0.0052556153 -0.022817647 -0.041497227 0.0053903586
000070 a4 dc 37 3d df d4 27 bd d2 7b 57 bc ce 9f cb 3c
       0.044888154 -0.040974494 -0.01315208 0.024856474
000080 7a cb 11 3d 71 49 14 bd 20 c6 8b 3c f4 7c 6b ba
       0.03559444 -0.03620285 0.017062247 -0.0008983158
000090 65 ac 60 3b d4 47 37 3c a9 97 cf 3c 4c 7c 56 3d
       0.0034282443 0.011186559 0.025340872 0.052364632
0000a0 9b 17 8f bc c7 e9 33 bd be f0 95 bb 3a 01 42 3c
       -0.01746731 -0.04392412 -0.004575818 0.011841113
0000b0 0c bc 2b bc 3b 44 44 bb cb e8 f9 3b 38 11 ff bc
       -0.010481846 -0.0029947895 0.007626628 -0.03113614
0000c0 e2 21 48 bb 84 50 9f bb 30 61 12 3d 05 5a 48 3d
       -0.0030537774 -0.004861893 0.035737216 0.048913974
0000d0 3e 79 08 bd b1 75 12 bd 35 23 c9 3c d7 0d 4f 3d
       -0.03331875 -0.03575677 0.02455292 0.050550308
0000e0 eb 0d e4 3c 41 de 86 bc f2 42 c5 ba 31 1f 0d ba
       0.027838668 -0.0164634 -0.0015049858 -0.0005383371
0000f0 e3 90 d8 3c 3a c9 4f 3d c6 02 47 bb 5d 04 3c 3d
       0.026436275 0.050729014 -0.0030366643 0.0459026
000100 8e d3 3d 3d c7 2b 5e 3c b3 b8 e1 bc 98 e5 db 3b
       0.046344332 0.013560242 -0.027553892 0.0067107193
000110 08 d4 fd 3c ce ce 57 bc b6 62 2c 3c fe d3 1c 3c
       0.030984893 -0.013171865 0.010521581 0.009572027
000120 70 22 40 3c d5 a7 02 3c 6e 98 85 3c ca 93 51 3c
       0.011726961 0.007974585 0.016308036 0.012791583
000130 36 89 fe 3c fb 42 00 bd 7e 01 5d 3d 62 c7 e9 3c
       0.031071287 -0.031313878 0.0539565 0.028537456
000140 de 5a 2a 3d f7 29 e2 3c c2 d2 98 bc 95 38 93 3d
       0.041590564 0.027607901 -0.018655185 0.071885265
000150 12 6e 71 3c 59 29 c1 3b 80 ba 97 bb 8a f6 a8 3a
       0.014735715 0.0058948216 -0.004630387 0.0012890857
000160 09 ba 9c bc d2 2e f5 3c c9 fa 36 bc ed 90 72 3c
       -0.019131677 0.029929552 -0.01116819 0.014805061
000170 2a 42 b9 3c 53 b9 c9 3b 03 ee 24 3d 53 4d b2 3c
       0.022614557 0.0061561256 0.04026605 0.021765387
000180 23 18 32 3c c4 af db 3b 57 05 ec 3b 51 60 60 bb
       0.010870012 0.0067043025 0.007202785 -0.0034237097
000190 b9 07 77 3d a7 29 94 3c f2 22 bc 3c 95 df 45 3d
       0.0603101 0.018086268 0.022965882 0.048308928
0001a0 62 53 0c bc 37 10 24 3d e5 bf 21 bd 3e 66 85 bc
       -0.008564802 0.040054526 -0.039489646 -0.016284104
0001b0 97 60 2d 3d 0f b0 3a bc a7 dc cd bc 67 d4 0c 3b
       0.042328443 -0.011394515 -0.02512963 0.0021488906
0001c0 cf 04 22 bd 8f 6a 5c 3d b7 7b d3 bb 65 bc 8f 3b
       -0.039555367 0.05381256 -0.006453957 0.004386472
0001d0 f2 43 45 bc 2c 77 0d bd e9 ee f4 bc bf 3b 1d 3d
       -0.012040125 -0.03453748 -0.029899077 0.038387056
0001e0 59 6e 4b 3d 0a c0 4b 3d b2 b2 d3 3b 3c 55 83 3c
       0.049665783 0.04974369 0.006460511 0.016031854
0001f0 6e 7f 49 3d 33 7b 29 3d f4 33 ba 3b 80 76 76 3d
       0.049193792 0.041377258 0.005682463 0.060171604
000200 ad f0 9c 3c e3 98 46 bd 12 cd b1 3c 9c d2 49 3d
       0.019157732 -0.048485648 0.02170423 0.04927312
000210 0c 23 43 bb aa 41 08 39 5f 12 18 3d 8e 4f af bb
       -0.0029775528 0.00012994432 0.037126895 -0.00535006
000220 b9 82 a8 bc a4 e4 81 3b f6 e5 60 3c 23 47 9d 3c
       -0.020570146 0.0039640237 0.013726702 0.01919896
000230 8b d0 02 bd 7c 08 22 3c d6 d4 11 bc 68 61 d9 bb
       -0.031937163 0.009889718 -0.008900842 -0.006633926
000240 92 5b 2e 3c 5b 29 80 bc c8 43 b9 bb a3 99 87 bc
       0.010641949 -0.01564472 -0.005653832 -0.016552752
000250 26 a8 3e ba fc 3b ca bc 07 a3 b3 39 a3 37 e9 3c
       -0.0007272981 -0.024686806 0.00034263005 0.028468912
000260 de de 13 3d e5 65 83 3c dc ff 15 3d 67 cd 66 bb
       0.036101215 0.016039798 0.03662096 -0.0035217644
000270 f3 3d 66 3c ed 4a cf 3c 3b 58 08 bc 64 bf 83 3c
       0.014052856 0.025304282 -0.008321817 0.016082473
000280 04 36 bf bb 42 0f 44 3d fe 22 97 3b dc f1 88 3c
       -0.0058352966 0.047866113 0.0046123257 0.01671689
000290 c9 10 82 bb e5 00 32 3c 9b a0 a3 bc e1 55 15 bc
       -0.003969286 0.010864471 -0.019974044 -0.009114713
0002a0 cc c1 d0 3b a0 d8 48 3d 39 de 36 bb 9e bf 7c bc
       0.0063707586 0.049034715 -0.002790345 -0.0154265445
0002b0 5f b5 cf bc 78 0f 85 3b 02 59 e0 bc 6e 73 51 3c
       -0.02535504 0.004060682 -0.027386192 0.012783868
0002c0 6d ec d8 bc 80 70 d6 bc 31 74 db bc 70 d9 fb bc
       -0.026479924 -0.026176691 -0.026788803 -0.03074333
0002d0 20 55 b7 3c ca 5c 4f 3c 55 80 3d bd 98 de d7 bc
       0.022379458 0.0126564 -0.046264965 -0.026351258
0002e0 c3 43 a9 3c db 8e 1a 3d 74 8e 1b bc 02 90 12 bc
       0.020662194 0.037733894 -0.009494413 -0.008945467
0002f0 93 8b a9 bc 55 a0 ca bc b3 1e bb bb 0f 68 17 bd
       -0.020696437 -0.024734655 -0.0057104467 -0.036964472
000300 c9 1f 6b bb ec cd e5 bb 4e ca 6a bc 0e 3c 79 bc
       -0.00358771 -0.007013073 -0.01433046 -0.015212072
000310 f1 8a a5 3c 3e 21 05 3c bc a2 38 bc ae 09 b2 bb
       0.020207854 0.008125601 -0.011269268 -0.005433283
000320 9a c9 0a 39 ce 3c cd bc 32 a0 ea 3c 94 a5 82 bc
       0.00013235808 -0.025053408 0.02864084 -0.015948094
000330 87 f5 d6 bb 1e 53 a7 bb be ca c7 bc b7 b1 4a bc
       -0.006560031 -0.005106344 -0.024388667 -0.012371472
000340 bf ca a6 bc 31 b5 1c 3d 8c 03 e5 3c e5 7f 3a bc
       -0.020360349 0.038258735 0.027955793 -0.0113830315
000350 56 7f 11 bc bd fb a9 bc 2d 1a 43 3c df fe de 3b
       -0.008880457 -0.020749921 0.011908096 0.0068052853
000360 74 45 85 bc e3 ab a8 3c 7e e8 c3 3c 0f c2 b5 3c
       -0.01626847 0.020589774 0.023914572 0.02218726
000370 49 ad 6c bc 09 e8 ba bc a1 06 12 bd 81 9a 88 3c
       -0.014445611 -0.022815721 -0.035650853 0.016675236
000380 05 ec 8a 3b a4 44 73 3c 40 ee e1 3c 72 24 56 3c
       0.0042395615 0.014847908 0.027579427 0.013070213
000390 15 d2 cc bc 42 a0 07 3c a9 1e 3d 3c c8 3f 8e bc
       -0.025002519 0.0082779545 0.0115429545 -0.017364398
0003a0 69 02 0f 3d 1a 64 44 bc 4c 03 92 3b 53 c4 e3 3c
       0.034914408 -0.011986757 0.0044559594 0.027803576
0003b0 7e 97 00 bd 1e 4d a1 bb b7 87 2d 3d 56 7e a3 3c
       -0.031394474 -0.004922523 0.042365756 0.019957703
0003c0 2f a0 b1 3c 8b a9 73 bc 89 72 dc bc db eb 38 3c
       0.021682827 -0.014871965 -0.026910083 0.011286701
0003d0 d7 9f 40 bc 04 00 cf 3c bf 03 a8 3c f3 cc 94 bc
       -0.011756859 0.025268562 0.020509599 -0.018164134
0003e0 48 c4 e8 3a 0a 4a cd bc 6b 6f 9f bc 7c cc 87 bc
       0.0017758692 -0.025059719 -0.019462308 -0.016576998
0003f0 4c 08 b7 3b 47 69 a3 bc c6 60 b0 bc 86 3f 5e bd
       0.005585706 -0.019947661 -0.02153052 -0.0542598
